Models/fullEpoch_model.pth (torch, 32455 bytes, 7 tensors)

weight f4 [64, 27]
0	0x3e02d33f	0.12775896
1	0x3dcbccb5	0.09951154
2	0x1c3ba907	6.2091573e-22
3	0xbacc5b41	-0.0015591161
4	0x3d8197cc	0.06327781
5	0xba3c51b7	-0.00071838073
6	0x39f45462	0.00046602177
7	0x393ee975	0.00018206782
8	0x393084c0	0.00016834121
9	0x3c8e8113	0.017395532
10	0xb22b2d3d	-9.963796e-09
11	0xba867c4f	-0.0010260436
12	0xbab18987	-0.0013545015
13	0xbb047704	-0.002021254
14	0xbb05a2f3	-0.0020391315
15	0x3c9456a7	0.018107725
16	0x3b23001c	0.0024871891
17	0x3c69ba0e	0.01426555
18	0x3b0a0966	0.002106273
19	0x31b4d944	5.2633897e-09
20	0x3887500c	6.4522115e-05
21	0x3b7460f9	0.0037289246
22	0xba649714	-0.0008720022
23	0x3dc168cb	0.09443816
24	0xbb058d93	-0.0020378574
25	0x3c120234	0.008911658
26	0xbce19310	-0.027535945
27	0xbbe1e0c6	-0.00689325
28	0x3d82689a	0.063676074
29	0x1bcdeb28	3.4066371e-22
30	0xbae6b5e0	-0.001760181
31	0x3b16712c	0.002295564
32	0xba1f2ff8	-0.00060725166
33	0x390357fa	0.00012525907
34	0x38d4e126	0.00010150885
35	0x38659b0e	5.474226e-05
36	0x3bab9269	0.0052359593
37	0xb1025eba	-1.8971336e-09
38	0xbaac0b2e	-0.001312589
39	0xbabcd77c	-0.0014407481
40	0xbabbe0fa	-0.0014334016
41	0xbabc9770	-0.0014388394
42	0x3d701531	0.05861396
43	0x3c251320	0.010075361
44	0x3defcacc	0.11708602
45	0x381a7ba9	3.683163e-05
46	0x32674cec	1.346346e-08
47	0x37f9ab9c	2.9763025e-05
48	0x3ab357a0	0.001368273
49	0xba03a4f6	-0.00050218345
50	0x3dd8ed5b	0.10592147
51	0xbabca3f8	-0.0014392128
52	0x3b5dae4f	0.003382582
53	0x3b3b33d4	0.0028564828
54	0x3d96b0c8	0.07357937
55	0x3ddfced4	0.10928121
56	0x9acb7a37	-8.415628e-23
57	0x3bd877f9	0.0066060987
58	0x3d8262f8	0.06366533
59	0xba7a70e2	-0.0009553564
60	0x39e73972	0.00044102554
61	0x392641f7	0.00015855567
62	0x3908f1d1	0.00013060054
63	0x3c5e706b	0.013576607
64	0xb20b673d	-8.1143385e-09
65	0xbaaa9fef	-0.0013017635
66	0xbadf177a	-0.0017020546
67	0xbb237a10	-0.002494458
68	0xbb242ec3	-0.0025052286
69	0x3dff63a0	0.12470174
70	0x3c940c5a	0.018072296
71	0xbc73a21a	-0.014870191
72	0x3abf6d12	0.0014604649
73	0x329726bc	1.7596328e-08
74	0x3875adee	5.8574537e-05
75	0x3b8d29f2	0.004307979
76	0xba9d3626	-0.0011994287
77	0x3e23a65f	0.15981434
78	0xbb253529	-0.0025208688
79	0x3c31a56e	0.010842664
80	0x3d22cec2	0.03974796
81	0xbc1b715f	-0.009487479
82	0x3d25cdca	0.04047946
83	0x8a6b50c8	-1.1330032e-32
84	0x39f14dbd	0.00046025022
85	0x3d9883c0	0.07447004
86	0xba5fa03f	-0.00085306534
87	0x3a000333	0.0004883289
88	0x3925540d	0.00015766938
89	0x390b0c85	0.00013260737
90	0x3c52ce47	0.012866563
91	0xb1b67176	-5.309796e-09
92	0xba3c13d8	-0.0007174588
93	0xba5ffe27	-0.00085446466
94	0xbafa0e02	-0.0019077661
95	0xbaf12e51	-0.0018400644
96	0x3dec100c	0.11526498
97	0x3cd857ca	0.026409049
98	0xbb76af5c	-0.0037641143
99	0x3b0193f8	0.0019772034
100	0x31ffe884	7.4479107e-09
101	0x3826d7f6	3.9778613e-05
102	0x3b72f225	0.00370706
103	0xba7d262b	-0.00096568716
104	0x3d02940d	0.031879473
105	0xbaf37ed3	-0.0018577225
106	0x3c114387	0.008866197
107	0x3db09596	0.08622281
108	0x3dacd7f4	0.08439627
109	0x36ec8ac2	7.0495016e-06
110	0x8a61a2ea	-1.0863997e-32
111	0x3d337ab4	0.04381819
112	0x3d6c0316	0.05762013
113	0xba4f72c1	-0.0007913523
114	0x39116936	0.00013867472
115	0x3924ffb3	0.00015735514
116	0x39b96b29	0.0003536579
117	0x3c175a90	0.0092379
118	0xb1be8b3e	-5.545558e-09
119	0xbafb8196	-0.00191884
120	0xbb0d0e24	-0.002152332
121	0xbad37f0b	-0.0016135884
122	0xbacb8a1e	-0.0015528833
123	0xbcee1e59	-0.029067205
124	0xbbc0a5c6	-0.0058791367
125	0xbdb995a5	-0.090617456
126	0x3a9a9a4b	0.001179525
127	0xb313cc12	-3.4411705e-08
128	0x38557258	5.088965e-05
129	0x365fc8ab	3.3346394e-06
130	0xba667dc5	-0.0008792545
131	0x3e1a3c92	0.15062168
132	0xbad2724a	-0.0016055789
133	0x3aa3957c	0.0012480463
134	0x3d2f757b	0.042836647
135	0xbbdf7fe4	-0.0068206657
136	0xb04f1eb5	-7.53498e-10
137	0x0ff602e6	2.425859e-29
138	0xb8925cd8	-6.979116e-05
139	0x3baf78d4	0.00535498
140	0xace75001	-6.574297e-12
141	0x3049f669	7.3473544e-10
142	0x2f13e81c	1.3452034e-10
143	0xb18fefe5	-4.1891206e-09
144	0x3759b8b4	1.29772125e-05
145	0xafa397e4	-2.9757452e-10
146	0x35d7922e	1.6061292e-06
147	0xb5a774ba	-1.2476441e-06
148	0xaf4da828	-1.8704382e-10
149	0xaf48e3cf	-1.8270828e-10
150	0x3bc68e3f	0.0060594375
151	0xb8a86d8a	-8.0312675e-05
152	0xbc7e9e34	-0.015540648
153	0x3379637d	5.8065314e-08
154	0x2d9f4d63	1.8110574e-11
155	0xad155251	-8.487947e-12
156	0xa9faa113	-1.1130172e-13
157	0xb30f74b0	-3.340091e-08
158	0xbb28a876	-0.0025735176
159	0xaf14ea01	-1.3543656e-10
160	0xb767d6e9	-1.3818711e-05
161	0x3aa53472	0.0012604131
162	0x3c8a9164	0.01691503
163	0xbd481610	-0.048849165
164	0x1c208652	5.3113164e-22
165	0x3b28379b	0.002566791
166	0x3c87314a	0.016502995
167	0xba32769c	-0.00068078353
168	0x397b0927	0.00023940635
169	0x390877e1	0.00013014629
170	0x38d794d8	0.00010279723
171	0x3c248e3c	0.010043677
172	0xb1b694c4	-5.31381e-09
173	0xbad77147	-0.0016436958
174	0xbb000aac	-0.001953761
175	0xbb064ee1	-0.0020493793
176	0xbb0535a0	-0.0020326152
177	0x3db5042b	0.088386856
178	0x3d2d7a1e	0.04235279
179	0x3dc6822a	0.096927956
180	0x3a02b408	0.0004985933
181	0x2f382df2	1.6751026e-10
182	0x386667c2	5.4932905e-05
183	0x3b390118	0.0028229412
184	0xba726e47	-0.0009248
185	0x3e232a32	0.15934065
186	0xbb060915	-0.002045219
187	0x3bd5fa7e	0.006530105
188	0xbbc711f3	-0.0060751378
189	0x3dbf88e9	0.093522854
190	0x3d99fc23	0.075187944
191	0x9cb78439	-1.2144103e-21
192	0x3b890a68	0.0041821487
193	0x3d875606	0.066082045
194	0xba91bcfa	-0.0011118941
195	0x3a3d99a9	0.0007232675
196	0x3942a6ed	0.00018563466
197	0x39025374	0.00012428855
198	0x3c659789	0.01401318
199	0x3189fdb8	4.0160693e-09
200	0xbad03fcc	-0.0015888154
201	0xbb023e5e	-0.00198736
202	0xbb36da2f	-0.0027901044
203	0xbb346d3c	-0.002753093
204	0x3e1a53e0	0.15071058
205	0x3cdfa5c0	0.027300715
206	0x3dbd0a1a	0.09230442
207	0x3ad33e90	0.0016116668
208	0x328de3c4	1.6518136e-08
209	0x38fb9b2a	0.00011997514
210	0x3b929c52	0.0044742012
211	0xba9de0fd	-0.0012045201
212	0x3d49d35e	0.04927384
213	0xbb3568e7	-0.0027680935
214	0x3c2a46bf	0.010392844
215	0x3ceb3b82	0.028714899
216	0x1eb56c37	1.9208877e-20
217	0x980f799f	-1.854372e-24
218	0x900a6145	-2.7290635e-29
219	0x1ce51236	1.5158656e-21
220	0x1e0fd3ae	7.614131e-21
221	0x9c3bdfc9	-6.2162345e-22
222	0x1a7ed54d	5.2698272e-23
223	0x988de375	-3.667732e-24
224	0x160b7808	1.1266206e-25
225	0x1b47746a	1.649851e-22
226	0x11416663	1.5256566e-28
227	0x9b28138b	-1.3902949e-22
228	0x9bc49a78	-3.2525303e-22
229	0x9bbba5c0	-3.1043668e-22
230	0x1c9e44fe	1.0473397e-21
231	0x9d0d3ab8	-1.8691552e-21
232	0x9db93301	-4.902183e-21
233	0x9e9b39c7	-1.643516e-20
234	0x1c74859b	8.090551e-22
235	0x956666c8	-4.652921e-26
236	0x1673a8e0	1.9682671e-25
237	0x9b510510	-1.728971e-22
238	0x9b28612c	-1.3928032e-22
239	0x9c4b96a2	-6.7361754e-22
240	0x1c0c42c2	4.6408397e-22
241	0x1c20ca34	5.32009e-22
242	0x1df8f0e4	6.589413e-21
243	0xbc021558	-0.007939659
244	0x3d91af73	0.071135424
245	0x0a56e459	1.03466726e-32
246	0xb94863f4	-0.00019110722
247	0x3aaad216	0.0013032581
248	0x8a53aba3	-1.0191562e-32
249	0xaff43031	-4.4417584e-10
250	0xb360dd3a	-5.235527e-08
251	0x28604fdd	1.24518155e-14
252	0xb981c0b6	-0.00024748378
253	0x8a346176	-8.685015e-33
254	0xb3df4c16	-1.0398087e-07
255	0xb3e82138	-1.0809384e-07

bias f4 [64]
0	0x3c6a7e59	0.01431235
1	0x3bb07d72	0.005386048
2	0x3c8272b7	0.01592384
3	0x3c7dc8de	0.015489785
4	0x3c3cc856	0.011522373
5	0xb7f954b0	-2.9722549e-05
6	0x3c72e098	0.014824055
7	0x3c7d178c	0.015447509
8	0x1d2d6e0f	2.2953258e-21
9	0xb97eff91	-0.00024318534
10	0x3bb5fe3a	0.005553988
11	0x3b3c115b	0.0028696868
12	0x3d27ed6d	0.04099791
13	0x389c51ca	7.453894e-05
14	0xb91e6115	-0.0001510422
15	0x3ac1d103	0.0014787022
16	0x3b45c48b	0.0030176963
17	0x39dd5902	0.0004221872
18	0x3cf41f36	0.029800039
19	0x362e829d	2.6004047e-06
20	0x3c0d7569	0.00863395
21	0xbaae5af5	-0.0013302254
22	0xbb203d42	-0.0024450575
23	0x3b85b719	0.004080665
24	0xbadb7b9b	-0.0016745211
25	0x3bd41be9	0.0064730537
26	0x3ad3e31e	0.0016165709
27	0x3ced841b	0.028993657
28	0x388e3d55	6.7825116e-05
29	0x31a8e54c	4.9155116e-09
30	0x3b209dc5	0.00245081
31	0x3a0d55ad	0.000539149
32	0x3c368ea7	0.011142409
33	0x3baaf0b2	0.0052166814
34	0x3ca287e9	0.019840198
35	0x3b240239	0.002502574
36	0x3c0043e3	0.007828685
37	0xbb1bdbfd	-0.0023782246
38	0x3c8eba16	0.017422717
39	0x35c2c43f	1.4511241e-06
40	0x3d03b1ac	0.032151863
41	0xbb00c9b9	-0.0019651486
42	0x3cb09160	0.021553695
43	0x3c8ac553	0.016939795
44	0xa654b868	-7.380219e-16
45	0xba8e3c9a	-0.0010851801
46	0x3c7b1161	0.015323968
47	0x34639e4a	2.1198608e-07
48	0x389bc974	7.4284995e-05
49	0x3c5f6b2c	0.013636392
50	0x3c50daaf	0.012747451
51	0x3ad44344	0.0016194363
52	0x3c0f3446	0.00874049
53	0x3a884474	0.0010396377
54	0xb42dfbe4	-1.6203518e-07
55	0x3ba6621d	0.005077614
56	0x3b393060	0.0028257594
57	0x393e658d	0.00018157643
58	0xb995b9ad	-0.00028557834
59	0x3bbec572	0.005821877
60	0x39f2be05	0.00046299412
61	0x3c511d88	0.012763388
62	0x3cc05e9b	0.023482611
63	0xbac53bf4	-0.0015047775

weight f4 [32, 64]
0	0x3cc37575	0.023859719
1	0xbd950eff	-0.07278251
2	0xbcb6fd33	-0.022337532
3	0xbc0710a2	-0.008243712
4	0xbc454645	-0.012040679
5	0xb4a6008c	-3.0920307e-07
6	0xbde4973f	-0.111616604
7	0x3d670fc9	0.05641154
8	0x9d02f24a	-1.7330617e-21
9	0xbd8b245c	-0.067940444
10	0xbc69f21e	-0.014278917
11	0x3bd1cf3e	0.006402879
12	0x3ca3e9ad	0.020008886
13	0xbd42ea9b	-0.04758702
14	0xbd183f25	-0.037169594
15	0xbd7f1be3	-0.062282454
16	0x3c57d8c4	0.01317424
17	0xb980975a	-0.00024526828
18	0x3d24fe86	0.040281795
19	0xbb855112	-0.004068502
20	0xbdc754ce	-0.09732972
21	0xbd922a74	-0.071370035
22	0x3d566667	0.052343752
23	0xb9f2f264	-0.00046338432
24	0x3d897a4e	0.06712781
25	0x3d4ec4bb	0.050480586
26	0xbcc247a1	-0.023715796
27	0x3c050e9e	0.008121161
28	0x3d690d63	0.056897532
29	0xbcdee1a6	-0.027207207
30	0xbda76f25	-0.08175496
31	0x3ae8235d	0.0017710734
32	0x3da5610b	0.0807515
33	0x3ca5fa9d	0.020261103
34	0xbc7248df	-0.014787882
35	0x3d9b90ae	0.07595955
36	0xbc42d638	-0.011891894
37	0x3d855b49	0.06511552
38	0xbd5ef3c9	-0.05443171
39	0xbdbf6997	-0.093463115
40	0x3db7caed	0.08974252
41	0x3dbf9f3a	0.09356542
42	0x3d7482d6	0.059695087
43	0xbc1319cc	-0.008978318
44	0xaa5d5309	-1.9657552e-13
45	0xbd4bfb82	-0.049800403
46	0x3b966031	0.0045891036
47	0x3d5d8b11	0.054087702
48	0x3d6dde48	0.058073312
49	0x3b4bdcd6	0.003110697
50	0x3cc5b502	0.024134163
51	0x3d5c143b	0.05373023
52	0x39ec5472	0.00045076344
53	0xbdc99f11	-0.09844793
54	0x3cc69d76	0.024245005
55	0x3cadd312	0.02121881
56	0xbd2d3290	-0.04228455
57	0x3d1d4ffd	0.03840636
58	0xbda36f5b	-0.07980224
59	0x3af2693b	0.0018494496
60	0xbceb89a0	-0.028752148
61	0x3b3a07a6	0.0028385906
62	0xbd90cbf6	-0.070701525
63	0x3b79f683	0.0038141317
64	0x3ca95ffc	0.020675652
65	0x3cc56dbf	0.024100183
66	0x3b8e6a4d	0.004346168
67	0x3d6abf40	0.057311296
68	0x3d9823f1	0.0742873
69	0xb881aef4	-6.183787e-05
70	0x3d96183a	0.073288396
71	0xbd14d786	-0.03633835
72	0x1bc36226	3.232347e-22
73	0x3d8646f2	0.065565005
74	0x3d8df867	0.069321446
75	0xbd822461	-0.06354595
76	0x3d3a30a9	0.045456562
77	0x3c13dd83	0.0090249805
78	0xbc4645b4	-0.012101579
79	0x3d8ad678	0.06779188
80	0xbda21643	-0.07914402
81	0xbc1c0673	-0.009523022
82	0x3d4806bd	0.04883455
83	0x3d732a55	0.059366543
84	0x3cb19e85	0.021682033
85	0x3d9130a8	0.070893586
86	0xbc5ad2de	-0.013355939
87	0xbaa671ae	-0.0012698674
88	0x3dc55d06	0.096368834
89	0xbd12dcf7	-0.03585526
90	0xbd8c4365	-0.06848792
91	0xbc64bdb5	-0.013961245
92	0xbd8638a8	-0.06553775
93	0xbc8928b8	-0.016743049
94	0x3d38d6ff	0.04512691
95	0xbdd78be1	-0.10524727
96	0x3c801515	0.015635053
97	0x3d42e198	0.047578424
98	0x3dc516da	0.09623499
99	0xbc9fe52b	-0.019518455
100	0xbd864c36	-0.06557505
101	0xbd8d3d81	-0.068964966
102	0xbc18bf25	-0.009322916
103	0xbda8bee1	-0.08239532
104	0xbe09bb5e	-0.13450381
105	0xbdc345c8	-0.09534794
106	0x3beb4068	0.0071793087
107	0xbd673b93	-0.0564533
108	0xa91ec6ea	-3.5255578e-14
109	0x3c99981f	0.018749295
110	0xbc01ee98	-0.00793042
111	0x3d59bf2a	0.053160824
112	0x3d11dc46	0.03561046
113	0x3be46229	0.0069697094
114	0xbce6a489	-0.028154628
115	0x3c92f2a2	0.017937962
116	0xbb388472	-0.0028155115
117	0xbdbec294	-0.093144566
118	0xbd230892	-0.039803095
119	0xbc740b3f	-0.014895259
120	0xbd8c5088	-0.068512976
121	0x3d8ce1cb	0.06879004
122	0xbd9d86c7	-0.07691722
123	0xbaf80952	-0.0018923676
124	0xbdb204a9	-0.08692295
125	0xbc07e864	-0.008295152
126	0x3b7df7b6	0.0038752384
127	0xbc1f485c	-0.009721842
128	0x3dd34d74	0.103175074
129	0xbcf2c10c	-0.029633068
130	0x3bafe37d	0.005367695
131	0x3d9b3d2b	0.07580026
132	0x3c9b2545	0.01893867
133	0xbaa38b35	-0.00124774
134	0x3ce64bb6	0.028112274
135	0x3ad97b25	0.0016592486
136	0x1d467182	2.6263764e-21
137	0xbccdced4	-0.025123037
138	0x3cae6c58	0.021291897
139	0xbce0f6c4	-0.027461417
140	0x3ddb3153	0.10702767
141	0x3d99a36c	0.075018734
142	0x3c8d8987	0.017277492
143	0x3d6bda00	0.057580948
144	0x3e06e8f0	0.13174796
145	0xbb2c9768	-0.0026335362
146	0x3d7aae28	0.061201245
147	0x3ba037f3	0.004889482
148	0xbd42cbdf	-0.047557708
149	0xbd6a8cc2	-0.057263143
150	0xbcd2f219	-0.025750207
151	0x3d70c128	0.05877796
152	0x3daeb535	0.08530656
153	0x3cb2406b	0.021759233
154	0x3dc16d94	0.094447285
155	0x3d40e898	0.04709682
156	0x3c76dea6	0.015067732
157	0xbcc30d78	-0.023810133
158	0xbd416c84	-0.04722263
159	0x3cff2c90	0.031149179
160	0x3d988cde	0.07448743
161	0xbc8c1edc	-0.017104559
162	0x3de0f004	0.10983279
163	0xbc9b5121	-0.018959584
164	0x3dc9eaea	0.098592594
165	0xbd363d0a	-0.044491805
166	0x3b11717a	0.0022192881
167	0xbd9efeb1	-0.07763422
168	0x3cca52f7	0.024697764
169	0xbd945500	-0.07242775
170	0xbc53fcaa	-0.012938658
171	0xbb880014	-0.0041504
172	0xaa0eeefc	-1.2695048e-13
173	0xbc902dc5	-0.01759995
174	0x3ccb0e62	0.024787132
175	0x3d139daf	0.03603905
176	0xbce8f595	-0.028437415
177	0x3dfa9cbd	0.12236927
178	0x3dc9cf96	0.09854047
179	0x3c75af02	0.014995338
180	0x3d799c3e	0.06094002
181	0x3d33ed9b	0.04392777
182	0xbc540958	-0.012941681
183	0xbd825166	-0.06363182
184	0x3d024f7c	0.031814083
185	0xbc706d66	-0.01467452
186	0xbc2e88df	-0.01065275
187	0x3c82044d	0.015871191
188	0x3cf25c12	0.029584918
189	0x3d9513fc	0.07279202
190	0x3c8ef05a	0.017448593
191	0xbc12a00c	-0.008949291
192	0x3d2b0586	0.041753314
193	0xbd4860c4	-0.048920408
194	0x3d489163	0.048966777
195	0x3df15c28	0.117851555
196	0x3de8695d	0.113482215
197	0xbb10e74f	-0.0022110527
198	0x3d8409ca	0.064471796
199	0x3ce12989	0.027485626
200	0x9e8846b0	-1.4428796e-20
201	0xbd8026e2	-0.06257416
202	0x3cbbe4e9	0.022936301
203	0x3c7b9bfd	0.015357015
204	0x3d9b9b68	0.07598001
205	0x3d160c9e	0.036633126
206	0x39096d5d	0.00013106079
207	0xbd7728f6	-0.060341798
208	0x3d2a9f12	0.041655608
209	0xbcb4ffb8	-0.022094592
210	0x3e11c9ba	0.14237109
211	0xbd73c484	-0.059513584
212	0x3da3543b	0.0797505
213	0x3b3417b3	0.0027479946
214	0xbcc695ad	-0.024241293
215	0xbcdcd59c	-0.026957326
216	0xbd8b90ac	-0.06814703
217	0x3e0cdfe5	0.13757284
218	0xbd6b92c1	-0.057513002
219	0x3da9d26e	0.082920894
220	0x3db20310	0.086919904
221	0xbd35d566	-0.044392966
222	0x3cc3020a	0.023804683
223	0xbcbf8cae	-0.023382511
224	0x3ce0ef19	0.02745776
225	0xbbecee00	-0.0072305202
226	0x3dba1042	0.09085132
227	0xbd3c24e9	-0.045933638
228	0xbd1ee936	-0.038796626
229	0xbd7e4b8e	-0.062083773
230	0x3db0a50e	0.08625232
231	0xbd757107	-0.059922244
232	0xbcf5d25d	-0.030007536
233	0x3d097406	0.033557914
234	0x3c06f117	0.008236191
235	0x3da1dc9a	0.079034045
236	0xaab8dee3	-3.2839625e-13
237	0x3c04f753	0.008115607
238	0x3d6fd30c	0.05855088
239	0x3bc2752d	0.0059343786
240	0xbd46fd3b	-0.048581343
241	0x3dff022d	0.12451587
242	0xbce70de4	-0.028204866
243	0xbc19076c	-0.009340148
244	0xbcea000b	-0.028564474
245	0xbd46e501	-0.04855824
246	0xbcf78c70	-0.030218333
247	0x3dbceb0d	0.0922452
248	0x3d47a99e	0.048745744
249	0x3d0bf8bb	0.034172755
250	0xbc29109d	-0.010318902
251	0x3cd3cd44	0.025854714
252	0x3c548735	0.012971689
253	0x3dc66f21	0.09689165
254	0x3e0488c1	0.12942792
255	0x3b5b70c2	0.0033483957

bias f4 [32]
0	0x3be0bd85	0.00685853
1	0x3ccc76ee	0.024959054
2	0xbacafa44	-0.0015485962
3	0x3c169a8e	0.009192122
4	0xbc6096a7	-0.013707793
5	0xb6930032	-4.380964e-06
6	0x3c93df9e	0.018050965
7	0xbcaa787a	-0.0208094
8	0xbac6545d	-0.0015131343
9	0x3d3834c6	0.044972204
10	0x3b8c043b	0.0042729652
11	0x3c2db2f6	0.01060175
12	0x3c0da73c	0.008645829
13	0xbcf2f21a	-0.029656459
14	0xbb2d0402	-0.0026400094
15	0xbc813d09	-0.015776174
16	0x3c53fe0b	0.0129389865
17	0x3b131b5a	0.0022446723
18	0x3ccddf6a	0.025130946
19	0x3ce25d21	0.027632298
20	0x3ab1f04d	0.0013575644
21	0x3d1d84a7	0.038456585
22	0xb8ba5cc0	-8.886447e-05
23	0xa3f97abd	-2.7048616e-17
24	0x3cf09562	0.029368106
25	0x3c53690f	0.012903466
26	0xb889a3d4	-6.5631844e-05
27	0x3bed6809	0.007245068
28	0x3bceb538	0.006308224
29	0x3d016993	0.031594824
30	0x3a4000cc	0.00073243375
31	0x3cc970ac	0.024589859

weight f4 [16, 32]
0	0xbd9a71c3	-0.075412296
1	0xbe191247	-0.14948379
2	0x3d8fe827	0.070267014
3	0x3d3bd6c2	0.045859106
4	0xbdb9949a	-0.090615466
5	0xbc4f0d98	-0.012637518
6	0x3cfe2bf9	0.031026827
7	0x3db2c591	0.08729089
8	0x3e15c431	0.14625622
9	0x3e3544ab	0.17701976
10	0xbd103193	-0.035203528
11	0x3d21c203	0.039491665
12	0xbe0261eb	-0.12732665
13	0x3dcf93c7	0.10135608
14	0xbd3040ba	-0.043030478
15	0x3ce9c93b	0.028538337
16	0x3e38b45c	0.18037552
17	0x3de6eb05	0.11275295
18	0x3ce2027e	0.027589079
19	0x3d9ffd73	0.078120135
20	0x3e26f682	0.16304973
21	0x3e2b05d3	0.1670144
22	0xb407f5c2	-1.2662261e-07
23	0xa3549420	-1.152391e-17
24	0x3deb289c	0.11482355
25	0x3d64a25f	0.05581891
26	0xbdc44294	-0.09583011
27	0x3caddd8e	0.02122381
28	0x3de655d0	0.11246836
29	0x3de0990d	0.10966692
30	0x3dfe5915	0.12419335
31	0x3de41ddd	0.111385085
32	0x3c56b0b6	0.013103655
33	0xbe21a00e	-0.15783712
34	0xbb14ff37	-0.0022735128
35	0x3e2dfe0f	0.16991447
36	0x3d982480	0.07428837
37	0x30dca2dd	1.6053395e-09
38	0x3e0d16e4	0.13778263
39	0xbe0efd97	-0.13963924
40	0xbd8ff717	-0.070295505
41	0x3e7321b4	0.23743325
42	0xbd8c8ea5	-0.06863145
43	0x3c64bea1	0.013961465
44	0x3d825ac3	0.06364968
45	0x3e09e776	0.13467202
46	0x3cc1495c	0.02359455
47	0xbc3b905f	-0.011447995
48	0x3e312638	0.17299736
49	0x3cacec8c	0.021108888
50	0x3e18ea45	0.14933117
51	0x3e3e6d19	0.18596305
52	0x3e0489f2	0.12943247
53	0x3e434dfd	0.19072719
54	0xb437b922	-1.7110554e-07
55	0x23b7e6ce	1.993865e-17
56	0x3dfa418e	0.12219535
57	0x3d463786	0.048392795
58	0xbd8c594d	-0.0685297
59	0x3da5b66d	0.080914356
60	0xbd6664db	-0.056248527
61	0x3e2eba46	0.17063245
62	0x3c06bb07	0.008223302
63	0x3d271743	0.04079367
64	0x3de52e48	0.11190468
65	0xbceabe3d	-0.028655166
66	0xbd8c2d5f	-0.06844591
67	0xbb35fea4	-0.0027770186
68	0x3dfbfa5f	0.12303614
69	0x398f6060	0.0002734689
70	0x3209d376	8.02253e-09
71	0xbced4aed	-0.028966391
72	0xbda30653	-0.079601906
73	0x2da21dd5	1.8430516e-11
74	0x3de114d9	0.109903045
75	0xbd755d4b	-0.059903424
76	0xbca7bda8	-0.020476177
77	0x3dda76b2	0.106671706
78	0xbc6d1e06	-0.01447249
79	0xbd48a677	-0.04898688
80	0xb909ec4e	-0.00013153368
81	0xbca2fbb5	-0.019895414
82	0xbd77de8d	-0.060514975
83	0xbd82cada	-0.06386347
84	0xbe0991ea	-0.13434568
85	0x8a47ff33	-9.629499e-33
86	0x0eb313d6	4.414601e-30
87	0x0a58747f	1.0421932e-32
88	0x0f7fd0ed	1.2612708e-29
89	0xbd21b549	-0.039479528
90	0x3ca71975	0.020397881
91	0xbc1412e2	-0.009037705
92	0xbcef173d	-0.029185886
93	0x8a5637db	-1.03142304e-32
94	0xbd28d994	-0.041223124
95	0x3dd4b91a	0.10386868
96	0x3dbf22c3	0.09332802
97	0x3c236d31	0.009974764
98	0x3ce82b8b	0.028341075
99	0xbdb5c5cf	-0.088756196
100	0xbd4d587d	-0.050133217
101	0x29870367	5.9957945e-14
102	0x39752b74	0.00023381208
103	0x3cd4c03f	0.025970576
104	0xbddb65c6	-0.10712771
105	0x3c35c2b3	0.011093783
106	0x3dc680e9	0.096925564
107	0x3e062738	0.13100898
108	0x3d8c6744	0.06855634
109	0xbe2ec89a	-0.17068711
110	0x3d2b43d6	0.04181274
111	0x3c70b82f	0.01469235
112	0x3d74941f	0.05971157
113	0x3dec2267	0.11529999
114	0x39511b9b	0.00019942077
115	0xbda20317	-0.079107456
116	0xbc938a13	-0.018010175
117	0x3882b9a8	6.233464e-05
118	0xad3cc2d3	-1.0729822e-11
119	0x22b2f9c9	4.8511467e-18
120	0xbc1d4871	-0.009599791
121	0xbca5cc8b	-0.020239135
122	0x3d98a84e	0.074539766
123	0x3aa17a5a	0.0012319789
124	0xbdde81a2	-0.10864569
125	0xba78b4ad	-0.0009487372
126	0xb4e4b875	-4.260252e-07
127	0x38761b10	5.8676174e-05
128	0x3d151255	0.036394436
129	0xbd1698fa	-0.036766984
130	0xbe404e20	-0.18779802
131	0x3ccc45a7	0.024935557
132	0xbdde5264	-0.108555585
133	0x3d10ca57	0.035349216
134	0x3b72176c	0.003694023
135	0xbd9e1bef	-0.07720172
136	0x3c9f2beb	0.019430121
137	0xbcdf05d6	-0.027224462
138	0x3d82f056	0.06393497
139	0x3d9ea4d3	0.077462815
140	0xbda953e1	-0.08267952
141	0x3d11fbd6	0.03564056
142	0x3d8dc025	0.06921414
143	0x3e05617b	0.13025467
144	0x3d85abf0	0.06526935
145	0x3ca6ec4d	0.020376349
146	0x3de65439	0.11246533
147	0xbd482e77	-0.048872437
148	0x3d830746	0.06397872
149	0xbc878b90	-0.01654604
150	0xad0f09b6	-8.130765e-12
151	0x237d78e4	1.3740757e-17
152	0xbc911f01	-0.01771498
153	0x3d26fbce	0.040767483
154	0x3dd0ed59	0.102015205
155	0x3d721790	0.059104502
156	0x3cf16849	0.029468672
157	0xbc602353	-0.013680297
158	0x3d0f92dc	0.035052165
159	0xbe3bacb2	-0.18327597
160	0xbd4fee11	-0.050764147
161	0x3d8f0d4b	0.06984957
162	0x3dbf3ed0	0.093381524
163	0xbd1bb67f	-0.03801584
164	0x3d63c06b	0.055603426
165	0x3c7210cd	0.014774513
166	0x3d192eb2	0.037398048
167	0xbdcd4b65	-0.10024146
168	0x3e102c79	0.14079465
169	0x3c63ac1a	0.013896013
170	0x3d807b58	0.06273526
171	0xbe2195d6	-0.15779814
172	0x3d9f9af7	0.07793229
173	0xbd62b407	-0.05534747
174	0xbdb9edb9	-0.09078545
175	0x3dc811a8	0.09768993
176	0xbd329517	-0.043599214
177	0xbe0d4cb1	-0.13798787
178	0x3d54a411	0.05191428
179	0xbe298d80	-0.16557884
180	0x3cc5de52	0.024153862
181	0xb8480bdc	-4.769476e-05
182	0x271cdda4	2.17695e-15
183	0x9dcd7a0c	-5.438924e-21
184	0xbaf35712	-0.0018565378
185	0x3e02cb56	0.12772879
186	0xbd3b2485	-0.045689125
187	0x3422ba19	1.5155128e-07
188	0x3cdb38a0	0.0267604
189	0xb9c77135	-0.00038040584
190	0xbd80b13b	-0.06283804
191	0xbdb0b823	-0.08628871
192	0x3dbfa199	0.09356994
193	0xbc575af1	-0.013144241
194	0x3e31a63e	0.17348573
195	0x3e4ed571	0.20198609
196	0xbde901e8	-0.11377317
197	0xaf363454	-1.6571394e-10
198	0x3dbe2e75	0.09286205
199	0xbda7987c	-0.08183381
200	0xbc347864	-0.0110150315
201	0xba3239cd	-0.0006798774
202	0x3c2d6de8	0.010585286
203	0x3e06cbf8	0.13163745
204	0x3e084978	0.13309276
205	0xbb57d1bc	-0.0032931408
206	0x3e4dfc81	0.20115854
207	0x3e24f585	0.16109283
208	0x3da96c5d	0.08272622
209	0xbddfa616	-0.1092035
210	0x3e1d93bd	0.15388389
211	0x3e31461f	0.17311905
212	0x3d4f6e44	0.050642267
213	0x3e4c2313	0.19935255
214	0xb46db373	-2.2137628e-07
215	0xa2b18674	-4.8118304e-18
216	0x3e1db3f6	0.15400681
217	0x3d476aaf	0.048685726
218	0x3da3f0e0	0.08004928
219	0x3d2150ef	0.039383825
220	0xbd951729	-0.07279808
221	0x3e1ac982	0.15115932
222	0xbc711f1b	-0.014716889
223	0xbdf73237	-0.120701246
224	0x3da1bc94	0.078972965
225	0xbde027e3	-0.10945108
226	0x3dc0f737	0.094221525
227	0x3c5a70c0	0.013332546
228	0xbb9b1595	-0.0047327974
229	0x18b3b3fc	4.6452153e-24
230	0xbce877b4	-0.028377391
231	0x3e0011fc	0.1250686
232	0x3d5a0783	0.05322982
233	0x3d0cfdfe	0.034421913
234	0x3cc77275	0.02434657
235	0xbdb03268	-0.08603364
236	0xbdc5b7af	-0.096541755
237	0xbceb9bee	-0.028760877
238	0xbe1412a2	-0.14460233
239	0x3daaa105	0.08331493
240	0x3c8e7175	0.017388085
241	0xbd30c71c	-0.043158635
242	0xbda7e4fd	-0.08197973
243	0x3e05f096	0.13080058
244	0xbd1642ed	-0.03668492
245	0xbbae4b76	-0.0053190542
246	0x327ba539	1.464769e-08
247	0x2291669f	3.9410983e-18
248	0xbc588fd4	-0.013217885
249	0xbd18cf9e	-0.037307374
250	0xbd862d15	-0.065515675
251	0x3c8f1325	0.017465184
252	0x3d519f7b	0.051177483
253	0xbc7342d3	-0.014847475
254	0x38826b6f	6.218894e-05
255	0x3c0dc150	0.008652046

bias f4 [16]
0	0x3de80827	0.1132968
1	0xbd760916	-0.06006726
2	0x3d2b90f9	0.041886304
3	0x3d1d0069	0.03833047
4	0xbd906ef0	-0.0705241
5	0xbd9f4553	-0.077768944
6	0x3e1a5133	0.15070038
7	0x39c88a72	0.00038250122
8	0xbd728049	-0.059204374
9	0xbb9bf56f	-0.0047594826
10	0x3daa5c77	0.083184175
11	0x3ba36b3c	0.0049871486
12	0x3d1a3f40	0.037657976
13	0x3d8e3967	0.069445424
14	0xbd885a14	-0.06657806
15	0x3d83a5fc	0.064281434

weight f4 [1, 16]
0	0xbe3103b8	-0.17286575
1	0xbe86d9b2	-0.26337963
2	0x3d2ee6d1	0.042700592
3	0x3df816c7	0.121137194
4	0x3e4f48a9	0.20242561
5	0x3e21ef68	0.15813982
6	0xbe81f55f	-0.25382516
7	0x3deeea8e	0.116658315
8	0x3d1c1a25	0.03811087
9	0xbde06eaa	-0.109586075
10	0x3d8d4dcd	0.06899605
11	0x3e094ca7	0.13408147
12	0xbe3831ed	-0.17987795
13	0x3dada910	0.08479512
14	0x3dcdcc55	0.10048739
15	0x3d1e8afd	0.03870677
